…
lhost:8080/"},"id":"JZg8CE2V0oNg","outputId":"f99d88c6-f827-474f-bae5-1ffd9eb45fa7","executionInfo":{"status":"ok","timestamp":1687090160430,"user_tz":-120,"elapsed":243476,"user":{"displayName":"LORENZO BATALONI","userId":"11840869176777652552"}}},"execution_count":null,"outputs":[{"output_type":"stream","name":"stdout","text":["Model: \"sequential_18\"\n","_________________________________________________________________\n"," Layer (type)                Output Shape              Param #   \n","=================================================================\n"," sequential_19 (Sequential)  (None, 224, 224, 3)       0         \n","                                                                 \n"," sequential_20 (Sequential)  (None, 224, 224, 3)       0         \n","                                                                 \n"," conv2d_66 (Conv2D)          (None, 222, 222, 32)      896       \n","                                                                 \n"," conv2d_67 (Conv2D)          (None, 220, 220, 32)      9248      \n","                                                                 \n"," max_pooling2d_30 (MaxPoolin  (None, 110, 110, 32)     0         \n"," g2D)                                                            \n","                                                                 \n"," conv2d_68 (Conv2D)          (None, 108, 108, 64)      18496     \n","                                                                 \n"," conv2d_69 (Conv2D)          (None, 106, 106, 64)      36928     \n","                                                                 \n"," max_pooling2d_31 (MaxPoolin  (None, 53, 53, 64)       0         \n"," g2D)                                                            \n","                                                                 \n"," conv2d_70 (Conv2D)          (None, 51, 51, 128)       73856     \n","                                                                 \n"," conv2d_71 (Conv2D)          (None, 49, 49, 128)       147584    \n","                                                                 \n"," max_pooling2d_32 (MaxPoolin  (None, 24, 24, 128)      0         \n"," g2D)                                                            \n","                                                                 \n"," conv2d_72 (Conv2D)          (None, 22, 22, 256)       295168    \n","                                                                 \n"," conv2d_73 (Conv2D)          (None, 20, 20, 256)       590080    \n","                                                                 \n"," max_pooling2d_33 (MaxPoolin  (None, 10, 10, 256)      0         \n"," g2D)                                                            \n","                                                                 \n"," conv2d_74 (Conv2D)          (None, 8, 8, 512)         1180160   \n","                                                                 \n"," conv2d_75 (Conv2D)          (None, 6, 6, 512)         2359808   \n","                                                                 \n"," max_pooling2d_34 (MaxPoolin  (None, 3, 3, 512)        0         \n"," g2D)                                                            \n","                                                                 \n"," flatten_6 (Flatten)         (None, 4608)              0         \n","                                                                 \n"," dense_12 (Dense)            (None, 1024)              4719616   \n","                                                                 \n"," dense_13 (Dense)            (None, 101)               103525    \n","                                                                 \n","=================================================================\n","Total params: 9,535,365\n","Trainable params: 9,535,365\n","Non-trainable params: 0\n","_________________________________________________________________\n","757/757 [==============================] - ETA: 0s - loss: 225.4136 - accuracy: 0.0093\n","Ep
…
